…
[2022-09-03 16:30:42,611 PID:186151 INFO base.py __init__] DoubleDQN:
- agent = <slm_lab.agent.Agent object at 0x7f0dc4502470>
- action_pdtype = Argmax
- action_policy = <function epsilon_greedy at 0x7f0dcafc0378>
- explore_var_spec = {'end_step': 50000,
 'end_val': 0.01,
 'name': 'linear_decay',
 'start_step': 0,
 'start_val': 1.0}
- training_start_step = 32
- gamma = 0.99
- training_batch_iter = 1
- training_iter = 1
- training_frequency = 1
- to_train = 0
- explore_var_scheduler = <slm_lab.agent.algorithm.policy_util.VarScheduler object at 0x7f0dc45024a8>
- net = MLPNet(
  (model): Sequential(
    (0): Linear(in_features=2, out_features=256, bias=True)
    (1): ReLU()
    (2): Linear(in_features=256, out_features=128, bias=True)
    (3): ReLU()
  )
  (model_tail): Sequential(
    (0): Linear(in_features=128, out_features=3, bias=True)
  )
  (loss_fn): SmoothL1Loss()
)
- target_net = MLPNet(
  (model): Sequential(
    (0): Linear(in_features=2, out_features=256, bias=True)
    (1): ReLU()
    (2): Linear(in_features=256, out_features=128, bias=True)
    (3): ReLU()
  )
  (model_tail): Sequential(
    (0): Linear(in_features=128, out_features=3, bias=True)
  )
  (loss_fn): SmoothL1Loss()
)
- net_names = ['net', 'target_net']
- optim = Adam (
Parameter Group 0
    amsgrad: False
    betas: (0.9, 0.999)
    eps: 1e-08
    lr: 0.00025
    weight_decay: 0
)
- lr_scheduler = <slm_lab.agent.net.net_util.NoOpLRScheduler object at 0x7f0dc4502d68>
- global_net = None
- global_target_net = None
- online_net = MLPNet(
  (model): Sequential(
    (0): Linear(in_features=2, out_features=256, bias=True)
    (1): ReLU()
    (2): Linear(in_features=256, out_features=128, bias=True)
    (3): ReLU()
  )
  (model_tail): Sequential(
    (0): Linear(in_features=128, out_features=3, bias=True)
  )
  (loss_fn): SmoothL1Loss()
)
- eval_net = MLPNet(
  (model): Sequential(
    (0): Linear(in_features=2, out_features=256, bias=True)
    (1): ReLU()
    (2): Linear(in_features=256, out_features=128, bias=True)
    (3): ReLU()
  )
  (model_tail): Sequential(
    (0): Linear(in_features=128, out_features=3, bias=True)
  )
  (loss_fn): SmoothL1Loss()
)
[2022-09-03 16:30:42,612 PID:186151 INFO __init__.py __init__] Agent:
- spec = {'cuda_offset': 0,
 'distributed': False,
 'eval_frequency': 100000,
 'experiment': 0,
 'experiment_ts': '2022_09_03_163040',
 'git_sha': '9102ff923d7a3e9c579edc18c6547cce94a7b77a',
 'graph_prepath': 'data/ddqn_per_test_2022_09_03_163040/graph/ddqn_per_test_t0_s0',
…
